…
max_pooling2d_2 (MaxPooling2D)  (None, 128, 128, 128 0           conv2d_4[0][0]                   
__________________________________________________________________________________________________
conv2d_5 (Conv2D)               (None, 128, 128, 256 295168      max_pooling2d_2[0][0]            
__________________________________________________________________________________________________
conv2d_6 (Conv2D)               (None, 128, 128, 256 590080      conv2d_5[0][0]                   
__________________________________________________________________________________________________
max_pooling2d_3 (MaxPooling2D)  (None, 64, 64, 256)  0           conv2d_6[0][0]                   
__________________________________________________________________________________________________
conv2d_7 (Conv2D)               (None, 64, 64, 512)  1180160     max_pooling2d_3[0][0]            
__________________________________________________________________________________________________
conv2d_8 (Conv2D)               (None, 64, 64, 512)  2359808     conv2d_7[0][0]                   
__________________________________________________________________________________________________
dropout_1 (Dropout)             (None, 64, 64, 512)  0           conv2d_8[0][0]                   
__________________________________________________________________________________________________
max_pooling2d_4 (MaxPooling2D)  (None, 32, 32, 512)  0           dropout_1[0][0]                  
__________________________________________________________________________________________________
conv2d_9 (Conv2D)               (None, 32, 32, 1024) 4719616     max_pooling2d_4[0][0]            
__________________________________________________________________________________________________
conv2d_10 (Conv2D)              (None, 32, 32, 1024) 9438208     conv2d_9[0][0]                   
__________________________________________________________________________________________________
dropout_2 (Dropout)             (None, 32, 32, 1024) 0           conv2d_10[0][0]                  
__________________________________________________________________________________________________
up_sampling2d_1 (UpSampling2D)  (None, 64, 64, 1024) 0           dropout_2[0][0]                  
__________________________________________________________________________________________________
conv2d_11 (Conv2D)              (None, 64, 64, 512)  2097664     up_sampling2d_1[0][0]            
__________________________________________________________________________________________________
concatenate_1 (Concatenate)     (None, 64, 64, 1024) 0           dropout_1[0][0]                  
                                                                 conv2d_11[0][0]                  
__________________________________________________________________________________________________
conv2d_12 (Conv2D)              (None, 64, 64, 512)  4719104     concatenate_1[0][0]              
__________________________________________________________________________________________________
conv2d_13 (Conv2D)              (None, 64, 64, 512)  2359808     conv2d_12[0][0]                  
__________________________________________________________________________________________________
up_sampling2d_2 (UpSampling2D)  (None, 128, 128, 512 0           conv2d_13[0][0]                  
__________________________________________________________________________________________________
conv2d_14 (Conv2D)              (None, 128, 128, 256 524544      up_sampling2d_2[0][0]            
…
WARNING:tensorflow:From /usr/local/lib/python3.6/site-packages/keras/backend/tensorflow_backend.py:3445: calling dropout (from tensorflow.python.ops.nn_ops) with keep_prob is deprecated and will be removed in a future version.
Instructions for updating:
Please use `rate` instead of `keep_prob`. Rate should be set to `rate = 1 - keep_prob`.
__________________________________________________________________________________________________
Layer (type)                    Output Shape         Param #     Connected to                     
==================================================================================================
input_1 (InputLayer)            (None, 64, 720, 1)   0                                            
__________________________________________________________________________________________________
conv2d_1 (Conv2D)               (None, 64, 720, 64)  640         input_1[0][0]                    
__________________________________________________________________________________________________
conv2d_2 (Conv2D)               (None, 64, 720, 64)  36928       conv2d_1[0][0]                   
__________________________________________________________________________________________________
max_pooling2d_1 (MaxPooling2D)  (None, 32, 360, 64)  0           conv2d_2[0][0]                   
__________________________________________________________________________________________________
conv2d_3 (Conv2D)               (None, 32, 360, 128) 73856       max_pooling2d_1[0][0]            
__________________________________________________________________________________________________
conv2d_4 (Conv2D)               (None, 32, 360, 128) 147584      conv2d_3[0][0]                   
__________________________________________________________________________________________________
max_pooling2d_2 (MaxPooling2D)  (None, 16, 180, 128) 0           conv2d_4[0][0]                   
__________________________________________________________________________________________________
conv2d_5 (Conv2D)               (None, 16, 180, 256) 295168      max_pooling2d_2[0][0]            
__________________________________________________________________________________________________
conv2d_6 (Conv2D)               (None, 16, 180, 256) 590080      conv2d_5[0][0]                   
__________________________________________________________________________________________________
max_pooling2d_3 (MaxPooling2D)  (None, 8, 90, 256)   0           conv2d_6[0][0]                   
__________________________________________________________________________________________________
conv2d_7 (Conv2D)               (None, 8, 90, 512)   1180160     max_pooling2d_3[0][0]            
__________________________________________________________________________________________________
conv2d_8 (Conv2D)               (None, 8, 90, 512)   2359808     conv2d_7[0][0]                   
__________________________________________________________________________________________________
dropout_1 (Dropout)             (None, 8, 90, 512)   0           conv2d_8[0][0]                   
__________________________________________________________________________________________________
max_pooling2d_4 (MaxPooling2D)  (None, 4, 45, 512)   0           dropout_1[0][0]                  
__________________________________________________________________________________________________
conv2d_9 (Conv2D)               (None, 4, 45, 1024)  4719616     max_pooling2d_4[0][0]            
__________________________________________________________________________________________________
conv2d_10 (Conv2D)              (None, 4, 45, 1024)  9438208     conv2d_9[0][0]                   
__________________________________________________________________________________________________
dropout_2 (Dropout)             (None, 4, 45, 1024)  0           conv2d_10[0][0]                  
__________________________________________________________________________________________________
up_sampling2d_1 (UpSampling2D)  (None, 8, 90, 1024)  0           dropout_2[0][0]                  
__________________________________________________________________________________________________
conv2d_11 (Conv2D)              (None, 8, 90, 512)   2097664     up_sampling2d_1[0][0]            
__________________________________________________________________________________________________
concatenate_1 (Concatenate)     (None, 8, 90, 1024)  0           dropout_1[0][0]                  
                                                                 conv2d_11[0][0]                  
__________________________________________________________________________________________________
conv2d_12 (Conv2D)              (None, 8, 90, 512)   4719104     concatenate_1[0][0]              
__________________________________________________________________________________________________
conv2d_13 (Conv2D)              (None, 8, 90, 512)   2359808     conv2d_12[0][0]                  
__________________________________________________________________________________________________
up_sampling2d_2 (UpSampling2D)  (None, 16, 180, 512) 0           conv2d_13[0][0]                  
__________________________________________________________________________________________________
conv2d_14 (Conv2D)              (None, 16, 180, 256) 524544      up_sampling2d_2[0][0]            
__________________________________________________________________________________________________
concatenate_2 (Concatenate)     (None, 16, 180, 512) 0           conv2d_6[0][0]                   
                                                                 conv2d_14[0][0]                  
__________________________________________________________________________________________________
conv2d_15 (Conv2D)              (None, 16, 180, 256) 1179904     concatenate_2[0][0]              
__________________________________________________________________________________________________
conv2d_16 (Conv2D)              (None, 16, 180, 256) 590080      conv2d_15[0][0]                  
__________________________________________________________________________________________________
up_sampling2d_3 (UpSampling2D)  (None, 32, 360, 256) 0           conv2d_16[0][0]                  
__________________________________________________________________________________________________
conv2d_17 (Conv2D)              (None, 32, 360, 128) 131200      up_sampling2d_3[0][0]            
__________________________________________________________________________________________________
concatenate_3 (Concatenate)     (None, 32, 360, 256) 0           conv2d_4[0][0]                   
                                                                 conv2d_17[0][0]                  
__________________________________________________________________________________________________
conv2d_18 (Conv2D)              (None, 32, 360, 128) 295040      concatenate_3[0][0]              
__________________________________________________________________________________________________
conv2d_19 (Conv2D)              (None, 32, 360, 128) 147584      conv2d_18[0][0]                  
__________________________________________________________________________________________________
up_sampling2d_4 (UpSampling2D)  (None, 64, 720, 128) 0           conv2d_19[0][0]                  
__________________________________________________________________________________________________
conv2d_20 (Conv2D)              (None, 64, 720, 64)  32832       up_sampling2d_4[0][0]            
__________________________________________________________________________________________________
concatenate_4 (Concatenate)     (None, 64, 720, 128) 0           conv2d_2[0][0]                   
                                                                 conv2d_20[0][0]                  
__________________________________________________________________________________________________
conv2d_21 (Conv2D)              (None, 64, 720, 64)  73792       concatenate_4[0][0]              
__________________________________________________________________________________________________
conv2d_22 (Conv2D)              (None, 64, 720, 64)  36928       conv2d_21[0][0]                  
__________________________________________________________________________________________________
conv2d_23 (Conv2D)              (None, 64, 720, 3)   1731        conv2d_22[0][0]                  
__________________________________________________________________________________________________WARNING:tensorflow:From /usr/local/lib/python3.6/site-packages/tensorflow/python/ops/math_ops.py:3066: to_int32 (from tensorflow.python.ops.math_ops) is deprecated and will be removed in a future version.
Instructions for updating:
Use tf.cast instead.
WARNING:tensorflow:From /usr/local/lib/python3.6/site-packages/tensorflow/python/ops/math_grad.py:102: div (from tensorflow.python.ops.math_ops) is deprecated and will be removed in a future version.
Instructions for updating:
Deprecated in favor of operator or tf.math.divide.

conv2d_24 (Conv2D)              (None, 64, 720, 3)   12          conv2d_23[0][0]                  
==================================================================================================
Total params: 31,032,271
Trainable params: 31,032,271
Non-trainable params: 0
__________________________________________________________________________________________________
Epoch 1/30
Found 400 images belonging to 1 classes.
Found 1399 images belonging to 1 classes.
…
WARNING:tensorflow:From /usr/local/lib/python3.6/site-packages/keras/backend/tensorflow_backend.py:3445: calling dropout (from tensorflow.python.ops.nn_ops) with keep_prob is deprecated and will be removed in a future version.
Instructions for updating:
Please use `rate` instead of `keep_prob`. Rate should be set to `rate = 1 - keep_prob`.
__________________________________________________________________________________________________
Layer (type)                    Output Shape         Param #     Connected to                     
==================================================================================================
input_1 (InputLayer)            (None, 64, 720, 1)   0                                            
__________________________________________________________________________________________________
conv2d_1 (Conv2D)               (None, 64, 720, 64)  640         input_1[0][0]                    
__________________________________________________________________________________________________
conv2d_2 (Conv2D)               (None, 64, 720, 64)  36928       conv2d_1[0][0]                   
__________________________________________________________________________________________________
max_pooling2d_1 (MaxPooling2D)  (None, 32, 360, 64)  0           conv2d_2[0][0]                   
__________________________________________________________________________________________________
conv2d_3 (Conv2D)               (None, 32, 360, 128) 73856       max_pooling2d_1[0][0]            
__________________________________________________________________________________________________
conv2d_4 (Conv2D)               (None, 32, 360, 128) 147584      conv2d_3[0][0]                   
__________________________________________________________________________________________________
max_pooling2d_2 (MaxPooling2D)  (None, 16, 180, 128) 0           conv2d_4[0][0]                   
__________________________________________________________________________________________________
conv2d_5 (Conv2D)               (None, 16, 180, 256) 295168      max_pooling2d_2[0][0]            
__________________________________________________________________________________________________
conv2d_6 (Conv2D)               (None, 16, 180, 256) 590080      conv2d_5[0][0]                   
__________________________________________________________________________________________________
max_pooling2d_3 (MaxPooling2D)  (None, 8, 90, 256)   0           conv2d_6[0][0]                   
__________________________________________________________________________________________________
conv2d_7 (Conv2D)               (None, 8, 90, 512)   1180160     max_pooling2d_3[0][0]            
__________________________________________________________________________________________________
conv2d_8 (Conv2D)               (None, 8, 90, 512)   2359808     conv2d_7[0][0]                   
__________________________________________________________________________________________________
dropout_1 (Dropout)             (None, 8, 90, 512)   0           conv2d_8[0][0]                   
__________________________________________________________________________________________________
max_pooling2d_4 (MaxPooling2D)  (None, 4, 45, 512)   0           dropout_1[0][0]                  
__________________________________________________________________________________________________
conv2d_9 (Conv2D)               (None, 4, 45, 1024)  4719616     max_pooling2d_4[0][0]            
__________________________________________________________________________________________________
conv2d_10 (Conv2D)              (None, 4, 45, 1024)  9438208     conv2d_9[0][0]                   
__________________________________________________________________________________________________
dropout_2 (Dropout)             (None, 4, 45, 1024)  0           conv2d_10[0][0]                  
__________________________________________________________________________________________________
up_sampling2d_1 (UpSampling2D)  (None, 8, 90, 1024)  0           dropout_2[0][0]                  
__________________________________________________________________________________________________
conv2d_11 (Conv2D)              (None, 8, 90, 512)   2097664     up_sampling2d_1[0][0]            
__________________________________________________________________________________________________
concatenate_1 (Concatenate)     (None, 8, 90, 1024)  0           dropout_1[0][0]                  
                                                                 conv2d_11[0][0]                  
__________________________________________________________________________________________________
conv2d_12 (Conv2D)              (None, 8, 90, 512)   4719104     concatenate_1[0][0]              
__________________________________________________________________________________________________
conv2d_13 (Conv2D)              (None, 8, 90, 512)   2359808     conv2d_12[0][0]                  
__________________________________________________________________________________________________
up_sampling2d_2 (UpSampling2D)  (None, 16, 180, 512) 0           conv2d_13[0][0]                  
__________________________________________________________________________________________________
conv2d_14 (Conv2D)              (None, 16, 180, 256) 524544      up_sampling2d_2[0][0]            
__________________________________________________________________________________________________
concatenate_2 (Concatenate)     (None, 16, 180, 512) 0           conv2d_6[0][0]                   
                                                                 conv2d_14[0][0]                  
__________________________________________________________________________________________________
conv2d_15 (Conv2D)              (None, 16, 180, 256) 1179904     concatenate_2[0][0]              
__________________________________________________________________________________________________
conv2d_16 (Conv2D)              (None, 16, 180, 256) 590080      conv2d_15[0][0]                  
__________________________________________________________________________________________________
up_sampling2d_3 (UpSampling2D)  (None, 32, 360, 256) 0           conv2d_16[0][0]                  
__________________________________________________________________________________________________
conv2d_17 (Conv2D)              (None, 32, 360, 128) 131200      up_sampling2d_3[0][0]            
__________________________________________________________________________________________________
concatenate_3 (Concatenate)     (None, 32, 360, 256) 0           conv2d_4[0][0]                   
                                                                 conv2d_17[0][0]                  
__________________________________________________________________________________________________
conv2d_18 (Conv2D)              (None, 32, 360, 128) 295040      concatenate_3[0][0]              
__________________________________________________________________________________________________
conv2d_19 (Conv2D)              (None, 32, 360, 128) 147584      conv2d_18[0][0]                  
__________________________________________________________________________________________________
up_sampling2d_4 (UpSampling2D)  (None, 64, 720, 128) 0           conv2d_19[0][0]                  
__________________________________________________________________________________________________
conv2d_20 (Conv2D)              (None, 64, 720, 64)  32832       up_sampling2d_4[0][0]            
__________________________________________________________________________________________________
concatenate_4 (Concatenate)     (None, 64, 720, 128) 0           conv2d_2[0][0]                   
                                                                 conv2d_20[0][0]                  
__________________________________________________________________________________________________
conv2d_21 (Conv2D)              (None, 64, 720, 64)  73792       concatenate_4[0][0]              
__________________________________________________________________________________________________
conv2d_22 (Conv2D)              (None, 64, 720, 64)  36928       conv2d_21[0][0]                  
__________________________________________________________________________________________________
conv2d_23 (Conv2D)              (None, 64, 720, 3)   1731        conv2d_22[0][0]                  
__________________________________________________________________________________________________WARNING:tensorflow:From /usr/local/lib/python3.6/site-packages/tensorflow/python/ops/math_ops.py:3066: to_int32 (from tensorflow.python.ops.math_ops) is deprecated and will be removed in a future version.
Instructions for updating:
Use tf.cast instead.
WARNING:tensorflow:From /usr/local/lib/python3.6/site-packages/tensorflow/python/ops/math_grad.py:102: div (from tensorflow.python.ops.math_ops) is deprecated and will be removed in a future version.
…
